addition/model.pt (torch, 26048 bytes, 10 tensors)

weight_ih_l0 f4 [80, 4]
00000000: 0415 5bbf d101 d73e cd50 653e efab 8b3f
00000010: 82cb 05bf 4567 46bf c7d6 7e3f 6d32 be3e
00000020: d5b8 59be 0aa3 1ebd fdf7 8cbc db22 9ebe
00000030: 823a 1cbf d810 c8be 4e66 443f 6d04 1b3f
00000040: b4ba e2bd 7ce6 c0be d212 d03f 76cf 9ebf
00000050: 7db0 a33d 0967 1fbf 0bf6 c23f 0e39 643f
00000060: 4da5 a03d eb23 5f3e 947f c13f d81e 21c0
00000070: f0fb 8bbd 1448 263c de32 5f3f 71bf 043f
00000080: 451e a3be 82ef 6fbd 6418 843f 5b54 ff3e
00000090: d1a2 683d f76b 56bf ebef d33f 3cb1 673f
000000a0: 8c3c f23e 2be9 63bf e39f 263f 4a66 063f
000000b0: 84ba 05bf 128e 2d3e 8c4e d5be 614a b33f
000000c0: 0964 883f fac1 513f 11f7 16bf 3373 793f
000000d0: c533 2ebf 30cd c13d 01f1 9d3b 443f 5bc0
000000e0: 9d89 93be 319e 263e 4164 a93f 540a 1fbe
000000f0: 923d b73d 56a5 11bf dad7 0540 5a30 46bf
00000100: 0a17 a4bf 0671 e93f ddee a6bf 6f30 323f
00000110: 2626 d0be 86f1 d9be 3e84 d3bf 9d2f 993f
00000120: 1c07 b5be 0ca5 4ebf d71e a13f 64f0 763f
00000130: 9b82 68bf c10e d6be e463 a43f 9538 adbe
00000140: a5b0 833e 599a b7bd 737b 3440 bafb 2f3f
00000150: f1ab 063e e986 043f 1d60 143f a6e8 88bd
00000160: 3d36 9c3f 33dc f0be 2fcb 1840 740e 90bf
00000170: 99cc bcbd 44c7 383e 3675 3cc0 f18d 05bd
00000180: 4108 583e ef6f 21be a880 f93a b606 c8bf
00000190: d0b7 033f 0185 80c0 3129 7c3d acd1 8fbf
000001a0: 0b25 2bbe 6515 e33e dcd4 2cc0 1572 19c0
000001b0: df04 673f 9bee 433f f743 423f 3022 de3b
000001c0: 5475 de3f b5b8 8ebf 9c95 0f40 4213 27bf
000001d0: 8298 afbe b1e3 0c3f 1945 fb3f 3d52 3ebb
000001e0: b645 14bf 21d9 7a3e cf03 aebf 3823 03bd
000001f0: 114c a9bd c30d 153e bd28 b8c0 ea47 803e
00000200: 8247 f3be e656 6abe fb85 2dc0 77e9 253e
00000210: 0278 a8bd 3bbc 633e 8b94 a1be 567c 81c0
00000220: dd33 9e3e fa34 58be f48b dd3f 05f5 1fbe
00000230: 05c3 183e e551 ad3d 4156 1e40 b772 50bf
00000240: 4c26 81be 0121 493f b01b cbc0 aa08 923e
00000250: c86b ba3e df62 343e 1417 afbe 0d1a 023f
00000260: 59d2 debd 6ba8 273e 203c 54c0 24d6 d43c
00000270: 47d5 94be 9ff7 7c3d 7a11 1540 ebbb bdbe
00000280: 7096 0bbf c50f 873f 60db 3a3f 53ae ddbf
00000290: 24cf 623e 2378 71be c851 fd3f b7b1 66bf
000002a0: 1da2 b03d db56 153e 39f7 df3f 0827 dabe
000002b0: 587d 00be 110b edbe 305d 2540 2993 44bf
000002c0: 1642 a73a f511 913e 5240 2240 a74d bdbe
000002d0: 0afb b93f 8c8d 52bf c570 d7bf 584a cfbd
000002e0: 7be7 b83e 4a89 a23d 8f50 29c0 9721 78be
000002f0: 87dc a4bc bcae f6bd 13e5 c5bf 35ad a93f
00000300: b067 1a3e 0f5d 8f3d ca4c ddbf d6a4 653f
00000310: 709f 303e bce7 2abf fa55 85bf 7dbb 743f
00000320: f7e4 34bd 24a7 35bb 163e 06c0 cedd 3f3f
00000330: d556 5b3f 9cb9 5b3f 7427 f5bf 6520 1ac0
00000340: a553 9fbf b536 d73f a522 b2bf 836a 81bf
00000350: 8334 5d3f cd62 b0be d032 9a3f 1df9 edbe
00000360: 5efc b63e b727 fabc 2912 873f ec27 4abf
00000370: 6287 24bf 9a84 e43e b3ce cf3f 42bb 323d
00000380: 9480 893f b3fc b9be 477c 8c3f c418 48c0
00000390: a980 083e 42d9 823d 8e9d e43e 93f9 c6bf
000003a0: 9920 cb3e 408e 1ebe 30e1 47c0 23cc a13f
000003b0: a629 3c3f 65bb 05be 7a82 86bf 37b2 89bf
000003c0: a681 c0be 9a74 d7bd 3d9e 1c40 75ce 2fbf
000003d0: b47d 3bbe 249c a7bd f99b 253e 70b8 47bf
000003e0: a80c 18bf 5239 d9bf d31f 8840 a408 1b3e
000003f0: 7c0c 87bf dfdb 4bbe 7401 a83f 13ad c83e
-0.8557894 0.41993573 0.22394104 1.0911845 -0.52263653 -0.77501327 0.99546474 0.37147847
-0.21261914 -0.038729705 -0.017208094 -0.30885968 -0.61026776 -0.3907535 0.76718605 0.6055363
-0.11070767 -0.37675846 1.6255744 -1.2407062 0.07992647 -0.62266594 1.5231336 0.8914956
0.078440286 0.21791045 1.5117059 -2.5175076 -0.06835163 0.010149021 0.8718699 0.51854616
-0.3185903 -0.05857802 1.0319943 0.49869046 0.0567959 -0.8375849 1.6557592 0.90504813
0.4731182 -0.8902766 0.6508772 0.5249983 -0.52237725 0.16948727 -0.4166149 1.4007074
1.0655528 0.8193661 -0.58970743 0.97441405 -0.68047744 0.094629645 0.0048199897 -3.4257364
-0.28815928 0.16271283 1.323372 -0.15531284 0.089472905 -0.5689291 2.0912995 -0.7741753
-1.2819531 1.8237617 -1.3041645 0.69605154 -0.40654105 -0.4256708 -1.6524732 1.1967655
-0.35356987 -0.8072059 1.2587537 0.96460557 -0.9082429 -0.4180813 1.2842984 -0.3383223
0.25720707 -0.08964986 2.8200347 0.6874348 0.13151528 0.51768357 0.5795916 -0.06684999
1.2204052 -0.47043 2.3874013 -1.1254411 -0.092187114 0.18044764 -2.944654 -0.03260607
0.21096899 -0.15765356 0.0019035535 -1.5627048 0.5145235 -4.016236 0.06156272 -1.1235862
-0.1671335 0.4435226 -2.700492 -2.397588 0.9024181 0.7653596 0.75884956 0.006778978
1.7379556 -1.1150118 2.2435064 -0.6526376 -0.34296042 0.5503493 1.9630462 -0.0029040717
-0.5791887 0.2449689 -1.3594912 -0.03201601 -0.08266462 0.14556031 -5.754973 0.25054866
-0.47515494 -0.22884712 -2.7113025 0.16202341 -0.08226015 0.22239773 -0.31558642 -4.0464277
0.30898944 -0.21113959 1.7308335 -0.15620811 0.14918144 0.08462886 2.4740145 -0.8142504
-0.2522453 0.78565985 -6.34713 0.28522235 0.36410356 0.17615841 -0.34197295 0.50821
-0.108799644 0.1637284 -3.3161697 0.025981016 -0.29068968 0.061759587 2.3291917 -0.37057433
-0.54526424 1.0551687 0.7299099 -1.7318825 0.2214933 -0.23580985 1.9790583 -0.9011492
0.08624671 0.14583914 1.7497321 -0.42607903 -0.12547815 -0.46297505 2.5838127 -0.7678705
0.0012760784 0.28334013 2.5351758 -0.36973307 1.4529736 -0.82247233 -1.683129 -0.10121602
0.36114106 0.07936342 -2.645542 -0.24231564 -0.020124687 -0.12045047 -1.5460533 1.3255984
0.15078616 0.070001714 -1.7289059 0.89704645 0.1724832 -0.6675985 -1.0416863 0.95598584
-0.04416367 -0.0027718032 -2.0975394 0.7494782 0.8567937 0.8583009 -1.9152665 -2.4082272
-1.2447401 1.681357 -1.3916823 -1.011063 0.8640825 -0.3445038 1.2046757 -0.4647912
0.35739416 -0.030536516 1.0552417 -0.78967166 -0.6426908 0.44632417 1.6234955 0.043635614
1.0742364 -0.36325607 1.0975426 -3.1265116 0.1333033 0.06389095 0.44651455 -1.5544914
0.39673308 -0.15483952 -3.1231194 1.2640423 0.7350105 -0.13059767 -1.0508568 -1.0757512
-0.37598914 -0.10520287 2.447158 -0.68674403 -0.1830967 -0.08184078 0.1617278 -0.78015804
-0.5939431 -1.6970618 4.253885 0.15140015 -1.0550685 -0.19908093 1.3125443 0.39194545

weight_hh_l0 f4 [80, 20]
00000000: 1b24 09bf f82e b3be 2e4e 85be 4753 33bf
00000010: 03e1 66bf 6237 bdbe e597 9f3f 913b 683e
00000020: be3c 853f 4771 0c3f 50d7 7e3f 27c4 213c
00000030: 0a59 e73e e50a babe 41bc a9bf 1a41 c4be
00000040: 32db 1ebf 2209 053d adf9 ef3e c77e 533e
00000050: 4db6 a9be 29f3 3b3e 0963 313e 39f0 22be
00000060: 06b9 86be 9d17 9fbe 53bd b2bd d178 fa3d
00000070: aa19 423d a120 df3e b796 bc3d b0b9 adbe
00000080: 951d d13d d301 1d3f cb4e 07bf 01ee 273e
00000090: 63a5 153e 5707 8d3f 4fa0 35bd cda7 af3d
000000a0: 188e 933e 1168 58bf dc82 dcbf 9878 8f3e
000000b0: 0193 a33c b29d c2be 097f 813e 38ba ee3f
000000c0: a6cc 43bf 5069 903f 8dbc d13c 3e05 b9bf
000000d0: ad60 06be c28e 0540 91b0 db3c c35c 4b3f
000000e0: e7e6 ccbf a8ce aabe 4c79 42bf 75a3 ddbe
000000f0: b894 d4bd c1d3 cc3d 0fda ab3c 2f4e 0bbf
00000100: cf54 51bf 64ff 0bbf 46dd 843e 8512 853e
00000110: a142 38bd 6f21 b3bc 9bd0 f13e d3fd cd3e
00000120: 1df2 6e3a 02fc 05bf b41c d73e ba0b 643f
00000130: 7356 9f3f 4658 f23e 02f7 c43e b371 1d3e
00000140: 5b34 a4bb 2cda 3bbe 125e 383e f356 62be
00000150: 076e f2be 7e4b 7ebf 7980 51bc 3731 233e
00000160: 568e 203e bb60 99bd 474f 033e 3191 aa3d
00000170: 9de5 09be b64c d03d 1331 4b3e a017 0d3f
00000180: 3ca6 8abe 6923 95be f234 6d3e 54d7 af3c
00000190: aa3c 51bf 9dd1 093f ac34 9a3f d908 9bbf
000001a0: 0723 5c3c 49c2 f03e 883f e13f 8b8f 153e
000001b0: 139b f33e ed50 de3e 94e0 4d3f f3e9 003f
000001c0: bd87 8abf c441 6f3f 95fc a8bd 641b 773f
000001d0: 930e 253f 91f5 163f 1460 883f ef5a 113f
000001e0: 166c f53e 09f5 6c3f bf14 17bf 6d90 d53f
000001f0: a24f 583f 2a5e ac3e bb75 bcbe e38e f0bd
00000200: f11f 99bf 07de 9abf 0ea0 50bf 4638 ba3f
00000210: 2c13 54be 7e2a 223f d753 a83f 197f 01be
00000220: 3522 083f b016 03be 0423 38bf 1c31 80bf
00000230: 21ce f33b f247 bd3e db72 63be 6437 bfbe
00000240: c373 19bf b911 763e 8d7a 6e3e 3949 4fbe
00000250: d635 fd3c 830a 913c 5418 243e bdc0 7ebd
00000260: af11 fe3d cbd5 4b3e 6ae4 bbbe 233f e6bd
00000270: cc4a 00be d8ed 833e 96a5 003f 02c6 bc3e
00000280: 216b 26be 29f5 6cbd e703 22bd 0c3b 393d
00000290: 27bc 63be 9ed8 c73f 488f f93e 8919 1b3f
000002a0: 6433 603f cb3e 423e 834d 183f 8f4a a63e
000002b0: 1b59 3abe 415c 6d3f 5332 3dbe 95f4 9e3e
000002c0: d768 9dbe 3bb8 34bd 1e81 063f f36e 61bd
000002d0: fc8b 33bc 371d 343e 78fa 363e 1044 3dbe
000002e0: e741 94be 96ea 0a3e aa06 04be f08b 153e
000002f0: 2934 00be 0acb 953b 3e2c 393c 0189 063f
00000300: c235 033d c9f0 dd3d d644 95be 0f6e b43d
00000310: 0f15 bf3d b13e e1be 12c1 833b 91aa 08be
00000320: 52f2 0140 08dd ac3e 1e7f 4f3e cc55 a23e
00000330: d6ad 1a3f d3ca 57bf 5ba2 c3bd c746 c63e
00000340: 6c4d cabe ef15 55bf 811d 023f 0c26 853e
00000350: 6202 c73e eed9 53bf 6311 7b3f e8db f6bd
00000360: a729 8a3e 8c83 463d 7e25 0cbe 56df bfbe
00000370: 15db 30bf 26a9 d0be 8251 a5bf 2796 56be
00000380: f786 19bf 2c36 e63e 8541 243f 9a64 be3e
00000390: 9c33 f6bd 5bf0 413e c85a 7d3e 5d73 ff3f
000003a0: 86bb 603c 1325 363e 386d 803f 09ef debe
000003b0: ee4a 253e 9434 79bf 8f65 25be 1f2b 233f
000003c0: 5529 c73f 2b89 d63f eef8 43bf c122 d0be
000003d0: 1fa5 903e 24e1 31bf c8f8 3fbd 99f8 e3be
000003e0: 49e7 d53f a662 ef3d 1e30 7ebd 6fb4 f13c
000003f0: cf33 86bd 68e2 333f 78e8 c43f d906 ff3f
-0.5357072 -0.34996772 -0.2603621 -0.70048946 -0.9018709 -0.36956316 1.246823 0.22678973
1.0409162 0.5486035 0.9954729 0.0098734265 0.4518512 -0.36336437 -1.3260576 -0.3833092
-0.62053216 0.032479413 0.46870175 0.2065383 -0.33146897 0.18354477 0.17322935 -0.1591195
-0.26313037 -0.31072703 -0.08727517 0.12230075 0.047387756 0.4357958 0.09208434 -0.3393073
0.102107204 0.6133091 -0.52854604 0.16399385 0.14613871 1.1017865 -0.044342335 0.08576927
0.28819346 -0.8453379 -1.7227435 0.28021693 0.019967558 -0.38010937 0.25292233 1.865058
-0.76484144 1.1282139 0.025602603 -1.4454725 -0.13122816 2.0868382 0.026817592 0.7943842
-1.6007966 -0.3336079 -0.75966334 -0.4328877 -0.10379928 0.10001326 0.020978002 -0.54416174
-0.8177003 -0.5468657 0.25950068 0.25990692 -0.044985417 -0.021866528 0.47229466 0.40232715
0.0009115057 -0.5233766 0.42014086 0.89080393 1.2448257 0.47332972 0.38469702 0.15375404
-0.005011124 -0.18344945 0.18004635 -0.22103481 -0.4734957 -0.9933394 -0.012786978 0.15936743
0.15679297 -0.07489153 0.1282321 0.08328474 -0.13466497 0.101708815 0.19842939 0.55114174
-0.27079952 -0.29128578 0.23164728 0.021464981 -0.8173319 0.5383547 1.2047324 -1.2112075
0.013436086 0.47023228 1.7597513 0.14605539 0.4757925 0.43421116 0.80420804 0.5035698
-1.0822674 0.93459725 -0.08251301 0.9652617 0.64475363 0.58968455 1.0654321 0.5677938
0.47934026 0.92561394 -0.5901603 1.66847 0.8449651 0.3366559 -0.3680857 -0.117460035
-1.1962873 -1.2099007 -0.81494224 1.4548423 -0.20710438 0.6334609 1.3150586 -0.1264614
0.53177196 -0.12801623 -0.7192843 -1.0014987 0.007440344 0.36968952 -0.22211783 -0.37346947
-0.59942263 0.24030198 0.23288937 -0.20242776 0.03090946 0.017705208 0.16024905 -0.06219553
0.12405717 0.19905774 -0.36697704 -0.11242511 -0.12528533 0.25767398 0.50252664 0.36869818
-0.16251804 -0.05785099 -0.039554503 0.045222327 -0.22239743 1.5612981 0.48742127 0.6058584
0.87578416 0.18969266 0.59493273 0.3247876 -0.18198054 0.92718893 -0.18476228 0.31045976
-0.3074405 -0.04412101 0.5254077 -0.05503745 -0.010958668 0.1758927 0.17868984 -0.18482995
-0.2895653 0.1356605 -0.12893167 0.14604163 -0.12519898 0.0045713233 0.011302052 0.525528
0.03203369 0.10836942 -0.2915408 0.088100545 0.093301885 -0.43993142 0.0040208185 -0.13346316
2.030415 0.33762383 0.20263335 0.31706083 0.604215 -0.8429386 -0.09552451 0.38725874
-0.39512193 -0.83236593 0.5082627 0.2600559 0.38869005 -0.8275441 0.98073405 -0.120536625
0.26984903 0.048465297 -0.13686177 -0.3747508 -0.6908429 -0.4075405 -1.2915499 -0.20955716
-0.59971565 0.44963205 0.64162475 0.37186128 -0.120215625 0.18939345 0.24741662 1.9957081
0.013716584 0.1778758 1.0033331 -0.43541744 0.16141865 -0.9734585 -0.16152023 0.6373767
1.5559489 1.676061 -0.7655171 -0.40651515 0.28250977 -0.6948416 -0.046868116 -0.44525602
1.6711208 0.116887376 -0.062057607 0.029504983 -0.065528505 0.70267344 1.5383444 1.9923965

bias_ih_l0 f4 [80]
00000000: 7b45 91be 2265 11bf d19e 5f3e b4aa d43c
00000010: 2ce4 043f 09c6 0e3f 10df e93e a163 f83e
00000020: 27f3 7a3c 24a1 d33e b509 8f3d b9b3 0b3f
00000030: 33ed 5b3f bde7 283d b350 42be 368a 83bc
00000040: 87c0 753e 6907 1cbd 752c 88be b2f6 bfbe
00000050: fc54 053f f220 f03d 6239 cb3e ada5 81be
00000060: 7f44 c13d 854e 83bb 5564 94bd d9a9 4a3f
00000070: a052 d73d e5e3 993e 5366 1ebd 7f06 733e
00000080: 1263 06bf 3de5 6d3e 0c1d 6b3e de2f b8bc
00000090: 16df 5f3e ef8c 123f c7dc 563d 4428 873c
000000a0: 983f e53d eb40 2bbd 8822 f0bd 5016 8fbe
000000b0: 1928 1ebe b6c8 7ebe 8d8a 673e ccce 803d
000000c0: b035 8a3d f16e 713d 7f5f 99bd a917 eabc
000000d0: fe2e 383d 2640 c6bd e596 113e 3b97 c03d
000000e0: fb3e c7bd ff87 d3bd 84a4 023e 5aec bc3d
000000f0: c556 7fbd 6675 e0bd 8016 a1bd 2df5 4a3e
00000100: 26df 57be 44fe 153f 27c4 4d3e fd12 923d
00000110: 85b4 28bf 6a60 25bd 1a00 143e 7b16 833f
00000120: 904a 943f f659 f13e 06e5 bc3e 9c6a 273d
00000130: 0316 e1be c146 f13d 8e2b 093f 48bb bc3c
-0.28373322 -0.5679494 0.21837927 0.025960304 0.5191066 0.5577093 0.45677996 0.4851351
0.015316761 0.41333878 0.06984273 0.5457111 0.8590881 0.041236628 -0.18976097 -0.016057115
0.23999225 -0.038093004 -0.26596418 -0.374929 0.520828 0.11725034 0.39692217 -0.25321713
0.09436893 -0.004007163 -0.07245699 0.79165417 0.10513806 0.30056682 -0.038671803 0.23732947
-0.5249492 0.23231979 0.22960299 -0.022483762 0.21862444 0.572463 0.052456643 0.016498692
0.1119377 -0.041809957 -0.11725336 -0.2794671 -0.15444984 -0.24881253 0.22611447 0.062894434
0.06748521 0.058943693 -0.074889176 -0.028575735 0.04496669 -0.09680204 0.14217718 0.09403845
-0.097288094 -0.103286736 0.1275807 0.09224768 -0.06233861 -0.10959892 -0.0786562 0.1982009
-0.21081218 0.58591104 0.20094357 0.07132528 -0.6590045 -0.04037515 0.14453164 1.0241235
1.1585255 0.47138947 0.3689348 0.040873155 -0.43962106 0.11781073 0.53582084 0.023038521

bias_hh_l0 f4 [80]
00000000: 1040 e7be cb00 20bf 326f 5d3e 5883 6d3e
00000010: 1bec c53d c23d 1f3f dba0 8a3e 660f ff3e
00000020: bc06 f03b 407f ff3e 3b64 893e eef4 cc3e
00000030: ea79 5f3f c3a0 92be 2851 cf3d 449b 7bbe
00000040: bc82 923e 1f83 37be 0263 4e3d e214 12bf
00000050: 38d4 cd3e a033 ee3e f921 053f 23b1 5ebe
00000060: 325b 29be df85 8dbe bb92 4b3e cb1b 603f
00000070: 85d0 2d3e 49ea 133f 089d e63d 8548 143e
00000080: 6902 03bf dab5 823e b88c a63d 2105 ba3c
00000090: 9075 273d 3e87 fe3e 407d 26be 42af 04bd
000000a0: bc1b c2bb 4292 043e 0cd0 b23c 9d5a 65be
000000b0: e154 dbbd c3aa 8ebe c519 133e f677 5b3e
000000c0: ed67 ef3d 6557 0dbd 0284 563e 5f6c 83bb
000000d0: aed5 99be 8956 5c3e 93b2 883d d983 e33d
000000e0: f7ae 8e3c 642d 20be e6d9 783e 5239 c9bd
000000f0: 386b f53b 3323 dcbd e65c fcbe a1ac 51be
00000100: b3eb 44be 823e 5b3e 03fa 803e 8993 093d
00000110: b09a b3be b6b2 0b3e 4add 853e efc5 4d3f
00000120: b67b 8b3f 4023 113f da28 4d3e f450 98be
00000130: ee9f a8be 8dc4 8c3e 23f2 7d3e 7621 1ebd
-0.45166063 -0.6250121 0.21624449 0.23194635 0.09664174 0.6220361 0.27075848 0.49816436
0.0073250216 0.49901772 0.26834282 0.40030617 0.872954 -0.28638276 0.10122901 -0.24570948
0.28615367 -0.17921112 0.05038739 -0.57063115 0.40200973 0.46523762 0.52004963 -0.2174726
-0.16538695 -0.27641198 0.19880192 0.8754241 0.16974075 0.57779366 0.1126042 0.14480789
-0.5117555 0.25529367 0.08132309 0.022707524 0.0408836 0.49712557 -0.16258717 -0.0323937
-0.0059237164 0.12946418 0.02182772 -0.22397847 -0.10709549 -0.27864656 0.14365299 0.2143248
0.11689744 -0.034507174 0.20948794 -0.0040107216 -0.30045837 0.21517386 0.06674685 0.11109132
0.017417414 -0.15642315 0.24301872 -0.09825386 0.007489588 -0.10748901 -0.49289626 -0.20476009
-0.19230537 0.21410564 0.25190744 0.033587966 -0.35078955 0.13642392 0.26145393 0.8038015
1.0897129 0.5669441 0.20035115 -0.29749262 -0.32934517 0.27493706 0.24799399 -0.03860613

weight_ih_l0 f4 [80, 20]
00000000: 6813 973d b3fb 9c3d fae9 27bf bb42 9bbe
00000010: 2891 a5bd 49cd f4be 9e13 243f 9c72 f93e
00000020: 067e 613e e9d8 2b3f 00f6 c93d f9e2 e3be
00000030: 8b56 30be 2a82 b8be b2ce c13c f846 5c3d
00000040: d964 8fbf e64f 6b3f d37b e23e 5a0e 2a3d
00000050: 8818 243e 75e4 0e3e 48bd 223e 6ecd 2fbf
00000060: 0677 eebe 47e0 3abe 072d 15bf 5f66 ef3e
00000070: d80c 9f3f 8dcd 383f 199f 1d3d 8882 0dbf
00000080: ba0f 233e 6988 e1bd cc66 053f 0d0d 03bd
00000090: a7e3 60be f629 073e faa4 5cbe 246f a5bd
000000a0: 40c8 8dbd 5775 b7be 5566 1c3e 72d6 12bf
000000b0: 5200 a4b9 c9f4 263f c7ee 233f 1a88 0d3f
000000c0: 8ca1 463e 7631 3a3f d47c 163f 3dfc 0e3f
000000d0: 1371 97be d580 c8bf cea1 e9be c102 23bf
000000e0: 3b04 91bf 60f7 98bf 97bd 093f 5b7b 9f3e
000000f0: c1ef 233f d525 29be 05b9 02c1 17cf 49bd
00000100: 754a 203f 87f0 f43f af20 d53f 813c 583e
00000110: 60ec 65bf 8c9e b3be d3c6 18be a2b6 453f
00000120: 1835 86be 8a55 bd3f 0882 0e3f db99 b53f
00000130: 673b 79bf 31b9 6abf 2204 b2be 5bf4 97bc
00000140: 1390 2cbd 8cf6 f03c f965 efbe 2fdf 01bf
00000150: 96ae 5dbf 927b 9abf 1218 523f fa04 ab3f
00000160: 8bc8 333f e837 ac3f ff1a f23e 1c6b 44bf
00000170: 14a3 15be 3e62 88bd c4b0 1b3f 9ba4 153e
00000180: 3d40 b8be 4378 a83b 8034 0f3f 4724 39be
00000190: 4d0a 0dbd 1411 8b3e eb6e a13e 7b36 5c3f
000001a0: cd49 803f a4f6 15be 4551 f13e e8a5 b13e
000001b0: 62f1 d9be 8d42 35bf 86ea a6bc 8537 67bf
000001c0: de1d e3be b35c bf3e b91b 74bd 5dd6 853e
000001d0: e8e0 76be d1bf d3be 1935 adbe 1be9 8dbe
000001e0: c259 cb3d fd7e f73e bb54 dd3d cb35 0dbf
000001f0: 91a7 82bf 7034 1fc0 9004 663d 7ab9 b13e
00000200: eb92 203f 4e11 783e 9832 163f 8a9d 58bc
00000210: e07a 083f c9a4 c5bf c381 c3bd b63d 973d
00000220: 6ebe 043f 142c be3e 6189 e33d 2adb 773e
00000230: 40b2 88bf ac5e d9be 7d26 ca3f 5415 4f3e
00000240: b096 b23e 294e 2cbf 14a2 443f 65d3 123f
00000250: 4014 a23f b238 9d3f 0f10 8e40 2f21 ddbe
00000260: 1d4a d2bf 31e6 cc3b 8859 2ebf 01d7 63bf
00000270: f51b 60bf 7482 20bf 173d 3840 6f1d e53d
00000280: e5e5 e5be bce7 5b3e 5747 c6be 5999 c53d
00000290: c435 a93d 48ba b73f 7654 a1be b5af 1f3f
000002a0: 0f80 05bf ac40 ed3e 1b6e f2be 8c1d 233e
000002b0: 39f7 f23d 9d2d 433e 7137 363f c60a 663e
000002c0: 7218 64be 3033 a0bf 81f5 7fbd f3f9 7abf
000002d0: c4b7 333e c15a b53e 8977 8a3d 8809 27be
000002e0: 742e a93e bfbd 343f dd60 243f 2da0 803b
000002f0: 2be6 003e 257a 453f b56e da3e c825 f8be
00000300: 6358 b7bf eead 8cbe 6182 e5be 4163 17be
00000310: cd64 d3bf ed56 8cbe 36f8 303f 347f a8be
00000320: 3416 1f3e 87e8 563e 21ad a7be 6696 12bf
00000330: 28d9 0b3f a72b c5bf d19d 373f ca64 82bf
00000340: 4fbb 49be ef98 3b3c 08ba 603f ab24 75bf
00000350: a9d2 44be 5351 33bf e34d 323f 5978 3e3f
00000360: d13b 4cbf 654a 06bf 9118 753f 30c3 b9bf
00000370: 6c9c 953e 2f12 71be 653a 4b3f bc9d 50be
00000380: 4baf 5f3e 546f 8d3f ce99 00bf 2f6b 053f
00000390: c0aa c43e 2a67 42bf 9ade 6a3e 9d44 663e
000003a0: 842e bdbe bd8b 1cbf 9396 873c b33e ad3e
000003b0: 77ca 8abe fb6e 2dbf 1bc8 0c3e b163 95bd
000003c0: 1f4b 0cbf a4c6 7abe ce40 413e a186 95be
000003d0: e8fd 0a3f 7df7 1abd 1f0b c7be 202b 7d3e
000003e0: 70a4 28bd 47a0 063f 2afe 06bf 54c6 74bf
000003f0: 780e ac3e 14c6 823f b1dc 69be c30d cabc
0.07376748 0.07665195 -0.65591395 -0.3032435 -0.08084327 -0.4781287 0.64092433 0.48720253
0.2202073 0.67127854 0.09861374 -0.44509104 -0.17220514 -0.36036807 0.02365813 0.05377862
-1.1202651 0.9191879 0.44235095 0.041517593 0.16024983 0.13954337 0.15892518 -0.68672836
-0.46575183 -0.18249618 -0.5827183 0.4675779 1.2425795 0.72188646 0.038481805 -0.552773
0.15923968 -0.11012346 0.5210998 -0.031994868 -0.21961842 0.131996 -0.21547309 -0.08077839
-0.0692296 -0.3583171 0.15273412 -0.5735847 -0.00031280756 0.6521726 0.6403622 0.552858
0.19397563 0.7273172 0.5878422 0.55853635 -0.29578456 -1.5664316 -0.4563126 -0.6367608
-1.1329416 -1.1950493 0.53804916 0.311488 0.6403771 -0.16518338 -8.170171 -0.049269762
0.6261361 1.9135903 1.6650599 0.2111683 -0.89813805 -0.350819 -0.14919595 0.772318
-0.26212382 1.479173 0.5566716 1.4187578 -0.97356266 -0.9168883 -0.34768778 -0.018549135
-0.042129587 0.029414438 -0.46757486 -0.50731176 -0.8659452 -1.2068961 0.8206798 1.3360894
0.7022788 1.3454561 0.4728622 -0.76725936 -0.1461299 -0.06659363 0.608166 0.14613573
-0.3598651 0.0051412894 0.55939484 -0.18080245 -0.03443365 0.27161467 0.31529936 0.8602063
1.0022522 -0.14644867 0.47132316 0.3469689 -0.42566973 -0.70804673 -0.020375501 -0.9031909
-0.44358724 0.3737541 -0.05959675 0.2614011 -0.24109232 -0.41357282 -0.33829573 -0.27716908
0.09929229 0.48339072 0.10807177 -0.55160207 -1.0207387 -2.4875755 0.056156695 0.3471182
0.6272418 0.24225351 0.5867095 -0.013221154 0.5331249 -1.5440913 -0.095462345 0.07384817
0.5185307 0.37143004 0.11110187 0.24204698 -1.0679398 -0.4245504 1.5792996 0.2022298
0.3488059 -0.6730676 0.7680981 0.5735381 1.266243 1.2282927 4.4394603 -0.4318938
-1.6428868 0.006253027 -0.68105364 -0.88999945 -0.8754266 -0.62699056 2.8787286 0.11187255
-0.44901958 0.21475118 -0.38726303 0.09648389 0.08262208 1.4353724 -0.3150975 0.6237748
-0.52148527 0.46338403 -0.4734963 0.1592924 0.1186356 0.19060369 0.71178347 0.22465047
-0.2227495 -1.2515621 -0.06248999 -0.9803764 0.1755057 0.35420802 0.06761081 -0.1631223
0.33043253 0.7060203 0.642103 0.0039253444 0.12587802 0.771395 0.42662588 -0.48466325
-1.4323848 -0.27476448 -0.44826034 -0.14783956 -1.6515137 -0.2741007 0.6912874 -0.32909548
0.15535814 0.2098714 -0.32749274 -0.5726074 0.5462823 -1.5403947 0.71725184 -1.0187008
-0.19700359 0.011450036 0.8778386 -0.95759076 -0.19220985 -0.70045966 0.69650096 0.74402386
-0.7977877 -0.5245727 0.9574061 -1.4512691 0.29220903 -0.23542093 0.7938598 -0.20372671
0.21844213 1.10496 -0.5023469 0.52116674 0.38411522 -0.75938666 0.22936478 0.22487111
-0.3694955 -0.61150724 0.016551292 0.33836898 -0.27107593 -0.6774747 0.13748209 -0.07294405
-0.54802126 -0.24489838 0.18872377 -0.29204276 0.5429368 -0.03783368 -0.38875672 0.24723482
-0.041172445 0.52588314 -0.52731574 -0.95615125 0.3360479 1.0216699 -0.22838093 -0.024664765

weight_hh_l0 f4 [80, 20]
00000000: 3a6c 093f 2bca cebc 8134 af3d e48f dfbe
00000010: cdf6 4abf 519b 1ac0 6eba ef3d e8bc 00be
00000020: b286 aa3e 7cdd c8be 2169 973e 6031 81bd
00000030: efc4 9b3c 6b3d f1be 6524 bdbe 6328 f43c
00000040: d81c 0fbf c385 81be 66e2 debd 53d5 c6be
00000050: 2109 55bc b0a6 8a3e a090 a33e 07e6 6d3e
00000060: 2ff6 d6be e85e 23bf 81a0 efbe db52 4b3f
00000070: 5026 3a3e 32ed 42bf 1c9a 4c3d bd13 863f
00000080: 9b21 eebe ece3 d1be d1dd 05bf a525 41be
00000090: 8a6a 2cbf e6a4 51be 50d3 f7be 3223 07bf
000000a0: 9221 40be f3b5 f63d f7e8 6f3e 4f3f 9a3d
000000b0: 136e e73e 497d 58bf dce9 b63e d746 c2bf
000000c0: c9fd 40bf 2805 163e 11ca 883b d72a 2abf
000000d0: cf18 de3f 37a7 0bbe 44dd b13e 84b6 333f
000000e0: 2161 743e 6be6 c6bd 4c8e 4a3f 6afe b9be
000000f0: 0390 57be 8408 20be 167e 14bf 073a e33f
00000100: eab1 3f3e 1230 ccbf 831b 92c0 3099 2840
00000110: f767 843f e418 523f 43b4 e63e 9640 153d
00000120: 1ae2 833f 0faf 183e 7f3d 6f3f da78 dfbd
00000130: a0fc 5cbd 0aad dfbe 0299 453f cc36 d8be
00000140: 74a8 673e 2427 953f 39bd 553f 0ffb 933d
00000150: e813 e1bc 6c8c 86be 54b6 34be 36a8 163f
00000160: 949b dd3e 6674 0abf 736a 953e 94db 903e
00000170: 4b78 fa3e 651f 8bbe abcc 05bf 62e6 64be
00000180: 60e0 d6be 53ed f93b 3134 1fbf 6190 a03e
00000190: ee90 05bd 99ae 263d 0d1e 5cbe 4170 a13e
000001a0: ff78 5abe ae9d 243f 4faa 2d3e 19dc 5f3f
000001b0: 00c6 2abf 7bd0 473c be09 a73e 03a0 ba3e
000001c0: 2cc2 ecbd 3856 02be cc8a f4be 73f3 00bf
000001d0: 6838 abbe fad3 103f b7cb 6abd f2aa 003f
000001e0: 624d 4dbf 31fc 363d 18b7 77bf e0cd 40bf
000001f0: b1fe f03e f50a 33be 0097 47bf 5090 aebe
00000200: caa5 4fbf 7cd8 933f 5e13 fdbd 7da5 483f
00000210: 5214 eabe 9e3a 2dbf 7365 e4be 63e8 edbd
00000220: 222e 3abe 6dad 8c3d d4e5 df3e ae91 cc3e
00000230: 7489 44bf 00d3 19be b1ec 703e 1b02 1340
00000240: d4e5 c33e 2f8e d5bf 56e3 aa3e 515a 11bf
00000250: dae4 56bf 9184 1dc0 2e03 873c cd97 a43f
00000260: a3f8 f53e dc23 a6bc 494a 33bf 345c 81bd
00000270: b6a6 0bbf 763a 173e 4e76 21bf 110a 7dbf
00000280: 196e 44bf c416 31bd 6891 7abd ef92 203f
00000290: 46f4 4cbd a436 2abf 646f 653e 7e89 843f
000002a0: 684e f23e 076f 973e d177 2cbe ae09 e53d
000002b0: d803 e9be 5166 bb3e a63d 843e 7289 b53e
000002c0: e16e d03c 19d4 abbe 9aa3 4d3f f664 cf3d
000002d0: 9886 6dbf 134b 6ebe 190b 56bf 89aa 1240
000002e0: ed32 fd3d c5c9 e5be 30f4 29bd 897a 893d
000002f0: 03ce adbf 083d 85bf f8e8 75be 5474 c73e
00000300: f993 d6bd 7da6 f4bd 24e7 eb3e c0cc 343f
00000310: 2938 d33d df0f 6b3f 53be 073c 510a 9cbe
00000320: 309f 33be 22b1 39be 8f54 9a3e 1d3c e63d
00000330: c019 d43e 2297 2ebf a5de f63e 0612 4dbe
00000340: 9c4e d23d c748 6b3e bb62 ecbe 214e 4ebe
00000350: 6393 fa3e b780 503f b425 80bd 18fe 233f
00000360: 8e74 cdbe b001 68bf 1a43 ff3e 4f41 e5be
00000370: 6f63 acbf db79 b6be 3490 2fbd ed93 593e
00000380: e9c2 e0be 4a11 76be 5d5d 1ebf b801 ecbd
00000390: 1e3d 263f 58b6 113f 9469 58be c6e6 823f
000003a0: daae 30bf a270 7abc d673 0bbd 76ac 0b3f
000003b0: b6ae aebd e172 abbe 551b 84bd 93af 813d
000003c0: bc7c f8be f55d dd3d b43a 243f cab3 583b
000003d0: 980d fe3e 7348 7c3e 3c8a 2f3f a9cd b5bd
000003e0: 677c 4e3e 363d c0be d44d c33d ed1c 463f
000003f0: 8339 553d 941f 4fbd fcd0 5dbc 56cf 86bd
0.53680766 -0.025242886 0.08554936 -0.43664467 -0.7928284 -2.4157298 0.117054805 -0.12572062
0.3330589 -0.3923148 0.29572394 -0.06308246 0.019014804 -0.4711717 -0.3694183 0.029804414
-0.5590339 -0.25297365 -0.10883026 -0.38834628 -0.013002665 0.27080297 0.31946278 0.2323228
-0.41984698 -0.6381669 -0.46802142 0.794233 0.18178678 -0.7614318 0.049951658 1.0474774
-0.46510014 -0.40994203 -0.5229159 -0.18862016 -0.67350066 -0.2047306 -0.48403406 -0.5278808
-0.18762806 0.12046423 0.23428713 0.075316064 0.45201167 -0.8456617 0.35725296 -1.5177869
-0.75387245 0.14650404 0.004174479 -0.6647162 1.7351321 -0.13638006 0.34739125 0.7020037
0.23865177 -0.097119175 0.7912338 -0.36326915 -0.2105103 -0.15628248 -0.5800489 1.7752084
0.18720213 -1.595217 -4.5658584 2.6343498 1.0344228 0.8206923 0.45059404 0.036438547
1.0303376 0.1491053 0.9345321 -0.109117225 -0.05395186 -0.43686706 0.77186596 -0.42229307
0.22622854 1.165257 0.83491856 0.0722562 -0.027475312 -0.26279008 -0.17647678 0.5885042
0.4328276 -0.5408386 0.29182777 0.28292525 0.489199 -0.2717239 -0.52265424 -0.22353509
-0.4196806 0.007627168 -0.6218901 0.31360152 -0.03260892 0.040693853 -0.21495838 0.31530955
-0.21335219 0.643031 0.16959499 0.8744522 -0.66708374 0.012195702 0.3262462 0.36450204
-0.11560473 -0.12728202 -0.47762144 -0.50371474 -0.33441472 0.5657345 -0.057323184 0.5026084
-0.801962 0.044674102 -0.96763754 -0.7531414 0.47069314 -0.17484649 -0.7796478 -0.34094477
-0.8111235 1.1550441 -0.123572096 0.78377515 -0.45718628 -0.6766757 -0.4460865 -0.1161659
-0.18181661 0.06869016 0.43730032 0.39954895 -0.76772237 -0.15021896 0.2352779 2.2970035
0.38261282 -1.6684016 0.3337657 -0.56778437 -0.8394295 -2.4612162 0.016481008 1.2858826
0.48041257 -0.020280771 -0.70035225 -0.063164145 -0.54551256 0.14768395 -0.63071144 -0.98843485
-0.76730496 -0.0432346 -0.061173826 0.627242 -0.050037645 -0.66489625 0.22405773 1.0354459
0.47325444 0.29576895 -0.16842581 0.11183487 -0.45510745 0.366015 0.25828284 0.35456425
0.025443496 -0.33560255 0.8032776 0.10126679 -0.927835 -0.23270826 -0.83610684 2.2916586
0.12363229 -0.448805 -0.04149264 0.06712825 -1.3578495 -1.040925 -0.24014652 0.3895594
-0.10477442 -0.119458176 0.46074784 0.70624924 0.10313446 0.9182109 0.008285123 -0.3047662
-0.17541194 -0.18133977 0.30142638 0.112419344 0.41425896 -0.6819936 0.4821674 -0.20026407
0.102689 0.22976981 -0.46169075 -0.20146991 0.48940572 0.81446403 -0.06257191 0.6405959
-0.40127987 -0.90627575 0.49855882 -0.4477639 -1.3467845 -0.35639843 -0.042862132 0.21247835
-0.43898705 -0.24030033 -0.6186121 -0.11523765 0.6493701 0.5691886 -0.21134025 1.0226676
-0.690168 -0.015285643 -0.034046017 0.5456003 -0.08529417 -0.33486083 -0.06450526 0.06332316
-0.48532665 0.108089365 0.64152074 0.0033066147 0.49619746 0.24637012 0.68570304 -0.08877117
0.20164643 -0.375467 0.09536329 0.7738789 0.0520568 -0.050567225 -0.013538595 -0.06582515

bias_ih_l0 f4 [80]
00000000: 12ea f6bd 4981 5abe 4430 bb3e 3eb2 b93e
00000010: 4a18 6a3c de01 b7bd 93d5 9bbb b6ba 31be
00000020: 3b56 543f 34ed e33e 2412 743f 92bd 003f
00000030: 908c 243f e736 773f 4f25 2a3f 7a32 cdbc
00000040: fa1b 713e b646 e23e 2949 083f 110c d0bc
00000050: 28c0 4f3e 829e 133e 8201 b53c 8426 7fbe
00000060: 9f3b dc3e 0121 ba3e 4d08 68bc 248a 6ebd
00000070: f73e c6be 546c 133c fccc 1dbd 7e54 3e3e
00000080: 9c47 063e a268 e73e 88b7 a13e 7300 ee3e
00000090: f9e8 613e 78d3 043e 3a81 583e 25c4 cd3c
000000a0: 7f23 abbe bcce 583c e21b 953d d9d1 8e3e
000000b0: 3999 9dbe 2dc2 0fbf 9042 363e 3ed0 b13d
000000c0: 77da b9bd c5c6 5f3c f1f4 4dbe ccb0 4ebe
000000d0: 5412 903e cb46 643f 04fd 3e3e 4f90 fc3e
000000e0: 5289 753e 46f1 cebe 19b7 3d3e f2f8 3b3e
000000f0: 04a1 96bd 7e41 913e 1618 6f3f 56f6 8dbd
00000100: 6e27 b53e 5f26 d03e e335 70be 9aa8 e53e
00000110: 7f77 393e 69f8 303f 3404 453f d4f2 823a
00000120: 3084 263f d3ea 453f 1d51 183f f73f fc3e
00000130: 8f48 c53e 63b5 093f 7d63 033f fbe9 5dbe
-0.12056364 -0.21338381 0.3656026 0.362688 0.0142880175 -0.08935903 -0.0047556846 -0.17356381
0.8294408 0.4451691 0.9534018 0.5028926 0.6427698 0.9656815 0.6646318 -0.025048483
0.23545828 0.44194573 0.53236634 -0.025396379 0.20288146 0.14415935 0.022095446 -0.24917036
0.43014237 0.36353305 -0.014162135 -0.05823721 -0.38719913 0.008997995 -0.038525566 0.18586919
0.13113254 0.45197016 0.31585336 0.46484718 0.22061528 0.12971294 0.21143046 0.025117943
-0.3342552 0.013232883 0.07280709 0.27894476 -0.30780962 -0.56155664 0.17798829 0.08682297
-0.09074872 0.01365823 -0.20112969 -0.2018463 0.28138983 0.8917052 0.18651205 0.4932885
0.23978165 -0.40418452 0.18526877 0.18356684 -0.0735493 0.2837028 0.9339613 -0.069317505
0.35381645 0.40654275 -0.23458056 0.44855195 0.1811199 0.69129044 0.7695954 0.0009990581
0.6504545 0.7731144 0.5949877 0.4926755 0.3853192 0.537924 0.5132368 -0.21671288

bias_hh_l0 f4 [80]
00000000: 895a 77be 4229 013e 57aa 053f f14d bf3e
00000010: e760 cb3d 28df 8bbe 1441 09be 7313 6fbd
00000020: 5de6 ff3e bc46 8f3e 3353 673f 928b 013f
00000030: 4d1f 1a3f 74ee 353f 3f73 2d3f e665 4d3e
00000040: 6ee3 c23e 5481 6c3e 21c4 593e 88eb e5bd
00000050: 287f 96bd bd03 b03e afd8 263d 1d3c 063e
00000060: 453c 003e 1755 9a3e b022 af3d 09fb 4cbe
00000070: 33c1 9fbe 04f4 09be f6e7 9abc 9b90 103e
00000080: 0f7c e43e d2eb 823e 5888 833e 9af4 f83e
00000090: 199d 503e 0934 7d3d 2d69 ac3b 8be4 a6be
000000a0: 86d6 efbe 5eff b73d efae 0d3e efa2 8b3e
000000b0: 162f 5d3c a8bd 8bbe b528 9a3d 78f5 25bc
000000c0: 3582 f7bc f40f 96be 99c5 7dbe 5b35 8a3c
000000d0: fea3 5ebd 6b1c 513f d914 9a3d 7d0a 1e3f
000000e0: 9959 ac3e 9ee7 a3be 4ba8 663c 5d1f 623d
000000f0: bfa8 803d a480 a03e a3ca 1e3f b21d a03e
00000100: f07f 363f 7cd4 a13e e646 24bf b43e a53e
00000110: ac7a 72bd 98d6 1b3f 7dcc 303f c0f9 4e3e
00000120: 542e 483f ccdc 813f 7218 b13e a110 a33e
00000130: 087f 633e 5253 053f 25d9 2a3f 2f3e 83be
-0.2415563 0.12613395 0.5221304 0.37364152 0.09930592 -0.27318692 -0.13403732 -0.058368158
0.4998044 0.27983654 0.90361327 0.5060359 0.6020401 0.71066976 0.67753977 0.20058402
0.3806414 0.2309621 0.21266223 -0.11226565 -0.07348472 0.34377852 0.04073399 0.13108869
0.12522991 0.30143043 0.08551538 -0.20017637 -0.31202087 -0.13471991 -0.018909436 0.14117663
0.446259 0.25570542 0.2568996 0.48624116 0.20372428 0.061817203 0.0052615614 -0.3259624
-0.46843356 0.08984254 0.13836263 0.27272746 0.013499996 -0.27293134 0.075272955 -0.010129325
-0.030213455 -0.29309046 -0.24782409 0.016871145 -0.054355614 0.8168399 0.075235076 0.61734754
0.33662108 -0.32012647 0.01407821 0.05520569 0.06282186 0.31348145 0.6202795 0.31272656
0.7128897 0.31607425 -0.6417068 0.322744 -0.05919902 0.6087432 0.69062024 0.2021246
0.7819569 1.0145507 0.34588963 0.31848624 0.22216427 0.5208026 0.66737586 -0.2563338

weight f4 [4, 20]
00000000: 4a6d 833e 4d73 183c a083 523e 98a4 89bf
00000010: f9fa 103f 007a ee3e 2f3f 133e ab57 4b3f
00000020: e789 bc3f 128f 103f 534b 04bf 1607 dfbe
00000030: 31fb 4c3f 6359 cdbe e6ed e23e 3b71 98be
00000040: 96bd 843e e925 13bf 609e 12be f34f 143f
00000050: 6fbe 223e 9d4e 243f 9807 a03e ff1f 5f3f
00000060: 8702 c23e 1e63 e63e e839 103e 900d 4abf
00000070: b75f 9cbf 92ea 66bf 7e62 03bf 9192 253f
00000080: e683 2dbe 25af d73e 6286 063f 7e3d a0be
00000090: 100d b93e 3ee4 863e d599 1bbf 1141 57be
000000a0: cc03 b23f c2f1 a9be 154d 2ebe 8566 2fbf
000000b0: e6cd 373f fd50 b23f 2377 51bf a9e6 01c0
000000c0: 0903 5f40 55f0 91bf 630d 2140 0d3b af3f
000000d0: af27 113f 9c47 7ac0 adbc 13bf e15a 71bf
000000e0: 1d6a eabe f97f a740 a8d7 09bf 5c3a 2fbf
000000f0: 1bc2 12bf 4ca7 2dbf b3b9 5dbe 58f7 603e
00000100: 4159 31c0 eba3 99bf 7e92 9abd 12b4 cf3d
00000110: c61e bdbe 57e6 833c 7d97 7f3e 65e3 70be
00000120: 3566 d1bd 5c28 763d e022 1abf f917 023f
00000130: 4bc2 d6be e37f 30bd 51e3 ee3e 1ef5 39bd
0.25669318 0.009304834 0.20558023 -1.0753355 0.56632954 0.46577454 0.14379571 0.79430646
1.4729584 0.5646831 -0.51677436 -0.43560094 0.8007079 -0.4010726 0.44322127 -0.29773888
0.25925893 -0.5747972 -0.14318228 0.5793449 0.15892957 0.64182454 0.31255794 0.871582
0.37892553 0.44997495 0.1408459 -0.78926945 -1.221671 -0.90201676 -0.5132216 0.6467677
-0.16944847 0.42125812 0.525488 -0.31296915 0.36142778 0.2634601 -0.60781604 -0.21020915
1.3907409 -0.3319226 -0.17021592 -0.6851581 0.7179855 1.3930966 -0.81822413 -2.0297034
3.4845603 -1.1401469 2.516442 1.3689896 0.5670118 -3.9106207 -0.5770977 -0.94279295
-0.45784083 5.2343717 -0.5384469 -0.68448424 -0.5732743 -0.678334 -0.2165287 0.21969354
-2.7710726 -1.2003149 -0.075474724 0.101417676 -0.3693754 0.016101046 0.24960132 -0.23524244
-0.102245726 0.060097083 -0.60209465 0.5081783 -0.4194511 -0.043090712 0.46657804 -0.045399778

bias f4 [4]
00000000: f5db 2ebe 010e 68bc 7723 34c0 c341 e8bc
-0.17076094 -0.014163495 -2.8146646 -0.02835167
